torch_model.pt (torch_old, 319303 bytes, 13 tensors)

weight f4 [32, 4, 2, 2]
000000 1d cb 8f be c4 b5 9a 3e d7 a9 74 be a9 d8 81 3d
       -0.2808465 0.302168 -0.23892914 0.06340153
000010 23 7e 23 3f 94 92 48 3e 49 34 dd 3e e2 c6 5f 3e
       0.63864344 0.19587165 0.43203953 0.21853212
000020 53 bf c6 be 54 65 a9 3d 36 4e e8 be 3a 1a d3 be
       -0.38817844 0.0827128 -0.4537217 -0.41230947
000030 3e a9 1b 3d c3 61 85 bd b1 c0 23 3e 68 e7 77 3e
       0.0380032 -0.06512787 0.15991475 0.24209368
000040 30 6b 4e be 58 5c c7 3e 46 46 57 3d 37 7c a2 be
       -0.20158076 0.3893764 0.052557252 -0.31735393
000050 bd bc b0 3e 0a e2 eb bd 96 5b ac 3e 44 b2 6e 3e
       0.34518996 -0.11517723 0.33663625 0.2331019
000060 65 d4 ce 3d c8 b5 43 be fe f2 55 be ba a4 07 3e
       0.10099105 -0.19112313 -0.20893475 0.13246432
000070 39 e3 67 3e af 40 e7 3d dc 28 28 3d de f2 fb bd
       0.22645272 0.11291634 0.04105459 -0.123021826
000080 14 83 f9 3e 9c 1d 73 bc 9b 1f f8 be 4c 89 aa 3e
       0.48732817 -0.014838602 -0.48461613 0.33307874
000090 2c 17 0d bf b4 25 9c 3e c8 a7 91 be 9b b6 37 3e
       -0.5511348 0.30497515 -0.2844832 0.17940752
0000a0 61 76 da 3e 56 ef 7a bc 54 05 52 3f 6b ba 91 be
       0.4266844 -0.015315851 0.8203938 -0.28462538
0000b0 cf e5 81 be 87 24 0e 3d 3f 96 8b bd 07 1f 5a 3c
       -0.25370643 0.034702804 -0.068157665 0.013313062
0000c0 d0 e2 8d bc d8 0e 73 3d 44 8c c0 bd 08 80 cd 3d
       -0.017320067 0.059340328 -0.094017535 0.10034186
0000d0 54 eb 37 be e8 1d 7e 3d ce 42 37 be 98 88 df bd
       -0.17960864 0.06204024 -0.17896578 -0.10914725
0000e0 e0 41 ee 3c a4 0d 78 be ee 50 27 be ca fd 6a be
       0.029084146 -0.24223953 -0.16339466 -0.22948375
0000f0 36 54 61 3e 6a e1 3c be 82 83 39 be 34 86 e3 bd
       0.2200478 -0.18445364 -0.18116572 -0.111095816
000100 7c 61 98 3d d7 5c 2c 3e f1 0e fd 3e b9 19 dd be
       0.07440469 0.1683229 0.49425462 -0.43183687
000110 f2 8e 02 be 87 0b 2d 3e 47 9d a4 bd 60 dc 2d be
       -0.12749842 0.16898929 -0.08037811 -0.16978598
000120 10 f7 fa 3c 96 53 a9 be 25 0c dd be 06 01 96 3e
       0.030635387 -0.33071584 -0.43173328 0.29297656
000130 52 8b a1 3d a6 ac 6a 3e 9c 2d 74 3e 3d 52 b7 3d
       0.07887901 0.22917423 0.23845524 0.089512326
000140 a9 3f d7 be 75 90 17 3e 7d 96 af be a9 f2 43 3e
       -0.42040756 0.148012 -0.342945 0.19135536
000150 56 ce 24 be 88 29 6b 3e b5 43 e4 3c 6a 76 bb bd
       -0.16094336 0.22965062 0.027864316 -0.09153445
000160 86 bc 37 3d 29 af ef be ad d2 80 be 31 b7 fc be
       0.044857524 -0.46813324 -0.25160733 -0.49358514
000170 20 8d 51 3e 16 c3 a9 3e 85 7a 9a 3e f0 83 83 3e
       0.20463991 0.3315665 0.301716 0.25686598
000180 a5 1f c6 3d e5 d9 02 3e d9 9f f4 3e 65 1d d8 3e
       0.096740045 0.12778433 0.47778204 0.42209926
000190 c6 59 9b 3e 37 1a c9 be d7 59 fe 3c 7d 4a ea be
       0.3034193 -0.39277813 0.031048698 -0.45759955
0001a0 92 10 d4 bd 10 ff 9f 3c 5f ab b5 3d fa 03 14 3f
       -0.10354723 0.019530803 0.08870577 0.5781857
0001b0 a4 68 31 bd a5 35 45 3e 73 69 60 be 1a 3f 17 3e
       -0.043312684 0.19258745 -0.21915226 0.14770165
0001c0 ca 6d 0f 3e fb 17 84 be 4b 73 f8 3e aa f5 d8 be
       0.14006725 -0.25799546 0.48525462 -0.42374927
0001d0 1d 95 b5 bd 89 1d 60 bd c7 24 dc be b2 10 f7 3e
       -0.08866332 -0.054715667 -0.4299681 0.48254925
0001e0 9a df 5e 3e 27 3a 84 3e 0e d9 1e 3d c4 6c 8b be
       0.21764985 0.25825617 0.03878122 -0.2723142
0001f0 2c 97 7a 3e bc dd ab 3d 6a 62 66 3e 9f f8 95 3a
       0.2447173 0.08391902 0.2249848 0.0011441893
000200 78 92 81 bc 2c 35 7b be f6 2c 92 be d0 97 8d 3e
       -0.015816912 -0.24532002 -0.28549927 0.27654886
000210 8c d8 de 3e d2 e8 1c bd f3 57 f1 3e 70 88 99 be
       0.43524587 -0.038307972 0.47137412 -0.29986906
000220 04 b3 1f be 09 47 1e 3e a1 07 83 be 7b 93 d8 3e
       -0.15595633 0.15456785 -0.25591758 0.4230002
000230 3c 34 1c 3d e2 67 1b bd d3 56 5b 3e 89 f3 84 3e
       0.038135752 -0.037940867 0.2141984 0.25967053
000240 0f 0e 7b 3e ee 42 13 3e b0 66 c2 bd 0a 7e 1a 3e
       0.24517082 0.14381 -0.09492242 0.15087143
000250 3d d8 37 3e be 39 ab bb c6 b2 0e 3f e5 01 9c 3e
       0.17953582 -0.0052253893 0.55741537 0.30470195
000260 9e 1f 76 be 99 47 a1 be df 7c 7e be ae be ef be
       -0.24035498 -0.31499937 -0.24852322 -0.46825165
000270 cf 3b 4e be 93 4c 2f 3e 55 a5 88 3e ac 1c fe bd
       -0.20140003 0.17119054 0.26688638 -0.124078125
000280 da db 74 be 11 5e ef 3e 0a e9 fa 3c 7b 4a f4 bd
       -0.23911992 0.46751454 0.0306287 -0.119282685
000290 42 0d 67 3e 69 59 7a be b5 63 23 be 35 4b 74 bd
       0.22563651 -0.2444817 -0.15956004 -0.059642036
0002a0 9b 5e 9e 3e 2b 8a 81 3d 8f 78 89 3e a7 33 bf bd
       0.30931553 0.063251816 0.2684979 -0.09336024
0002b0 63 c1 7f 3d b0 ff 88 bd a9 e4 90 3d 13 a3 49 be
       0.062440287 -0.066893935 0.070748635 -0.19691114
0002c0 44 97 e9 3d b6 15 b6 3e 2c 95 93 3e 78 0c b1 bd
       0.11405805 0.3556344 0.28824747 -0.08644956
0002d0 50 d2 9d be 2d 47 d2 be cf 23 9a be c3 e2 b3 bd
       -0.30824518 -0.41069928 -0.30105445 -0.08783486
0002e0 5b 21 ab 3e 28 cb 1d bc 21 34 92 3e b3 25 15 3f
       0.33423886 -0.009630956 0.28555396 0.5826065
0002f0 96 49 39 be 8d bf 08 3e 7b f1 d0 3c 1b b1 68 bd
       -0.18094477 0.13354321 0.025505772 -0.056809526
000300 6a 4d e3 bb d3 cc 3f 3d 74 fe 41 3e b8 1e aa 3c
       -0.0069367187 0.046826195 0.18944722 0.020766601
000310 d1 57 61 bc 85 33 92 3e 01 fe 21 3f 75 a1 8b 3d
       -0.013753847 0.2855493 0.63278204 0.06817905
000320 d3 1c 2d 3e 72 d4 b1 bd b4 80 c8 be ed 03 84 3d
       0.16905527 -0.08683099 -0.39160693 0.06446061
000330 2d 69 a4 bd fe ee 02 3e c8 b3 1e 3e 38 98 8e 3d
       -0.08027873 0.12786481 0.15498269 0.06962627
000340 f3 28 33 3e ca ec 78 be a8 ae 5c bd 12 a7 43 3e
       0.1749609 -0.24309078 -0.053877503 0.19106701
000350 a4 04 eb bd 0c 43 e9 bc f4 10 ed bd ec 9b ee 3d
       -0.114754945 -0.028474353 -0.11575499 0.116508335
000360 3a 6f 18 be a2 63 a9 bd c2 e2 b4 3d cc 73 55 3e
       -0.1488618 -0.082709566 0.08832313 0.20844954
000370 31 74 d0 bd 42 50 8c 3c 26 ea 4e be 28 bd 04 3e
       -0.10178412 0.017128114 -0.20206508 0.12962782
000380 56 f9 3a bd 02 5c 0f 3e de 7e 48 be 30 0c bc bd
       -0.04564794 0.13999942 -0.19579646 -0.09182012
000390 1a 35 1a 3e 3d 86 97 be ef a2 b7 be b8 56 d1 be
       0.15059319 -0.29594603 -0.35866496 -0.40886474
0003a0 c5 9c 90 be 71 88 4e be 8b 7c bb 3d f6 be 85 bd
       -0.28244606 -0.20169236 0.09154614 -0.065305635
0003b0 49 82 21 3e c6 c9 95 bd c5 6a 82 3e ee 9a 3a 3c
       0.15772356 -0.07313876 0.25472084 0.011389477
0003c0 f6 ef 29 bf 28 09 9f be 95 48 1e be 89 82 87 3e
       -0.66381776 -0.31061673 -0.15457375 0.26466778
0003d0 74 a2 de 3e 2c fe cf 3e ed 1d 50 3e c2 44 9e 3e
       0.43483317 0.40623605 0.20323916 0.30911833
0003e0 af a7 0a 3f 4b 94 7a be 88 77 c8 3e e5 97 dc be
       0.54162115 -0.24470632 0.39153695 -0.43084636
0003f0 af 88 a8 3e 3a 7b bf 3d 1a 0e bb 3d 6f 62 30 3b
       0.3291678 0.093496755 0.09133549 0.002691414

bias f4 [32]
000000 90 94 8b 3d a8 1e ff bd ab 47 b4 3e e4 29 d6 3d
       0.068154454 -0.12457019 0.35210928 0.10457209
000010 c7 13 1c be 32 e4 6e be cd da 4f 3e fc 7a 64 3e
       -0.1524192 -0.23329237 0.2029831 0.2231254
000020 56 31 d8 bd fd 7c 36 3e a5 a9 02 3e f9 a2 82 3e
       -0.10556285 0.17821117 0.12760027 0.25514963
000030 7f 0a e2 bd 59 ba 6d be 7b 5e 16 be 6c bf 35 3e
       -0.11037158 -0.23215617 -0.14684479 0.17748803
000040 24 c7 5b be c7 13 e3 bd d4 e4 bd 3e 8b 69 bf 3b
       -0.21462685 -0.110877566 0.37088645 0.005841439
000050 d4 fc 6c be 95 22 6c be 28 02 09 3e 17 0e c9 3e
       -0.23143321 -0.23060067 0.13379729 0.39268562
000060 e3 d9 63 be 2a db 96 3e a8 4b 59 3e 2d de 23 3e
       -0.22251086 0.29464084 0.21220267 0.16002722
000070 dc f0 8e 3d 98 4e 43 bc 0b 6e 43 3e 8c 28 de bc
       0.06979534 -0.011920594 0.19084947 -0.027118944

weight f4 [64, 32, 2, 2]
000000 a5 af 38 be ad 70 16 3e b4 f7 15 be 9f 53 8f bd
       -0.18035753 0.1469142 -0.14645272 -0.06998371
000010 b0 db ad bc 12 96 7d 3d d7 55 87 3c d4 9f 2c 3d
       -0.02122292 0.061910696 0.016520424 0.04214461
000020 2a 2d fb 3d c0 97 d5 bd f7 b6 a0 bd ad cf c5 3c
       0.12264474 -0.10429335 -0.07847398 0.02414688
000030 52 f1 1d 3d 56 68 b3 bd bc 80 a0 bc 2a 18 41 3d
       0.03856022 -0.08760135 -0.019592635 0.047142185
000040 65 26 a3 3d a6 35 e9 3c 2e 3b 46 3d ac 3c 87 3d
       0.079663076 0.028467964 0.048396282 0.06603369
000050 90 4d 9a bd 61 2f a8 3d cb 9a f8 3d 04 31 f9 bc
       -0.07534325 0.08212162 0.121388994 -0.03041888
000060 07 1f 59 bc 54 c4 89 3d 66 8d 68 3d d0 ab 44 3e
       -0.013252026 0.067269 0.056775473 0.19206166
000070 68 41 ab 3d dd af 82 bc b9 2c a2 3d 7a c8 38 bb
       0.083620846 -0.015952999 0.079186864 -0.0028195665
000080 b1 bc 05 be 45 52 11 3e f2 e7 68 3c 1e f1 46 bd
       -0.13060261 0.1419154 0.014215456 -0.04856979
000090 52 38 15 bc 96 86 43 bd fd f7 a7 bd d3 c6 89 3b
       -0.009107666 -0.047735773 -0.08201597 0.00420461
0000a0 da 31 13 3d a2 da bc bd 28 6a db 3a ce e8 a6 3d
       0.035936214 -0.092213884 0.0016740011 0.08149873
0000b0 69 64 0f 3d 78 e8 71 bc 76 c7 e4 3c cc 00 83 3d
       0.035007868 -0.0147648975 0.027927142 0.06396636
0000c0 23 e0 19 3d 19 61 e9 3c 86 5f b5 3d e7 eb a6 bd
       0.03756727 0.028488683 0.0885611 -0.081504636
0000d0 eb f2 9f bd 47 a0 68 3d 90 1e fc bc 80 c5 9a bd
       -0.07810005 0.056793477 -0.030776292 -0.075572014
0000e0 de 54 c4 bd d8 71 4b 3d 74 6c aa 3d 1f 99 34 bd
       -0.095865 0.049669117 0.08321467 -0.04409134
0000f0 0d b3 93 bc b0 23 f8 3d fa 34 d0 bd 0d 90 f8 bd
       -0.018029714 0.12116182 -0.101663545 -0.121368505
000100 24 9f 76 bd a1 70 fa 3b 17 f1 4b bc 20 e1 cc bb
       -0.060210362 0.007642821 -0.012447617 -0.006252423
000110 0c 81 70 3c 31 19 c2 ba fe 49 4f 3d c7 43 6f be
       0.014679205 -0.0014808533 0.050607674 -0.23365699
000120 05 4e 8b bd 19 fc a5 bd d8 91 e1 bd 8e 71 bc bd
       -0.068019904 -0.081047244 -0.110141456 -0.09201346
000130 6a 3f 84 3d 0a 5d a0 bd 4f 23 4d be 75 c4 27 3e
       0.06457408 -0.07830246 -0.20033 0.16383536
000140 80 6c fe 3b c0 2e f6 bc df b9 a0 3d 84 6d a5 bc
       0.007764399 -0.030051589 0.07847952 -0.020193823
000150 5f 57 2b 3d 1a b0 58 3d bf 73 92 bd 22 c8 1a bd
       0.04183137 0.05290232 -0.07150983 -0.037788518
000160 3a 45 e0 3d 4a c4 2b bc 0e d3 52 bd c9 d4 d2 3c
       0.10950704 -0.010483811 -0.05147081 0.02573623
000170 fe f3 64 bd 78 43 de 3d 08 6d 2b 3d 46 21 93 bd
       -0.05589675 0.108527124 0.041852027 -0.07184081
000180 ce 18 68 3e 93 3d b8 bd bf dc d2 3d 86 e2 35 3c
       0.22665712 -0.08996119 0.1029601 0.011101371
000190 e6 bc e7 3d b4 6c 98 bd e7 b4 a6 bd 80 73 f9 bc
       0.113153264 -0.074426085 -0.08139973 -0.030450583
0001a0 61 85 87 bc 84 94 a0 3d 65 f1 09 3e e0 8e 85 bd
       -0.016543092 0.07840827 0.13470991 -0.06521392
0001b0 f5 51 a0 bd ba 90 00 3d 8d c1 00 3e e6 05 c1 3c
       -0.07828132 0.031388022 0.12573834 0.023562383
0001c0 68 53 98 bd 90 45 d8 3b 99 8e f8 3b d6 7c da 3d
       -0.074377835 0.0066000894 0.0075853583 0.10668342
0001d0 99 89 a3 bd fe e4 43 bc 01 2d 04 bd f1 1e 4d 3e
       -0.07985229 -0.011956451 -0.03226948 0.20031334
0001e0 8b f2 c1 bb 85 c3 3b 3d b5 fb 0a 3e 16 ad 04 be
       -0.005918806 0.04584076 0.13572581 -0.12956652
0001f0 4b 5c b5 3c 5c 36 b9 bd 9f 15 35 bd fc b5 18 bd
       0.022138735 -0.09043571 -0.044210073 -0.03728293
000200 dd 44 c0 bb 21 ea 9f 3c d7 91 de bc 84 6d c2 bd
       -0.005867584 0.019520821 -0.027169151 -0.09493545
000210 7e 13 4e 3d af 82 af bd 73 10 b8 3d 71 fd 5f bd
       0.050311558 -0.08569848 0.089875124 -0.05468506
000220 08 d4 26 bd cb 6f 72 3c 99 6c 3c bd 7d d7 b4 3d
       -0.040729553 0.014797161 -0.046002004 0.08830164
000230 18 4f 37 3c 83 2a 46 bd 3f a7 98 3d e6 7c 49 bd
       0.011188291 -0.048380386 0.07453775 -0.049191378
000240 65 89 09 3d a7 03 a2 bd 4d cf d5 3c 59 85 a2 bc
       0.033578295 -0.07910853 0.026099825 -0.019838976
000250 46 fa 91 bd d3 53 1e 3c a3 e4 5a bd df 20 e9 3c
       -0.07127814 0.00966354 -0.0534407 0.028458057
000260 c3 90 04 3e bd 46 2d 3b bc 1f 10 3e f4 f4 06 3c
       0.12945847 0.0026439868 0.14074606 0.008237112
000270 35 30 50 bc 43 a9 18 3d c5 f9 a9 bd 42 b2 86 bd
       -0.012706806 0.037270796 -0.08299593 -0.06576969
000280 a7 b5 20 3d 53 db da bd 13 37 0c 3e 6c f5 1d 3d
       0.039235737 -0.10686364 0.13692884 0.03856413
000290 5f 44 ba 3d ea d5 fc bc 1b 0a 78 bd 3e 96 c3 ba
       0.09095072 -0.03086372 -0.060556512 -0.0014922095
0002a0 81 43 a8 3d 6c f8 97 3c 4f 61 58 bc f9 be 9a 3c
       0.08216 0.018551074 -0.013206794 0.018889891
0002b0 3b b7 af 3c 90 f8 81 bc c3 1a 3f bc 39 dd ec 3d
       0.021449676 -0.015865594 -0.011664095 0.115656324
0002c0 f4 53 02 3d 3b 5c e4 bc 5d c2 a9 bd c9 65 93 bd
       0.031818345 -0.02787601 -0.08289025 -0.07197148
0002d0 1b 9c ab 3d 1d 7d 1e 3d 9a ad 65 bb 65 d9 43 3c
       0.08379384 0.038693536 -0.0035046102 0.011953686
0002e0 9b b8 55 bd ae 57 af bc 36 31 88 3d 6d df a8 3d
       -0.052178007 -0.021404114 0.06650011 0.0824574
0002f0 e6 76 85 bd 90 06 b6 3d b6 c8 40 be 0c f2 37 3d
       -0.06516819 0.088879704 -0.18826565 0.04490857
000300 04 20 f4 bc b2 8f ae 3c 3f a4 07 bd 72 d0 91 3d
       -0.029800422 0.021308754 -0.03311562 0.07119836
000310 f5 6b df 3c 52 8c f4 bd 74 3a b7 bd 9e 20 f2 3c
       0.027273158 -0.119408265 -0.08946696 0.029556569
000320 20 2b 17 be f1 2e a5 3d 7c 63 8a bd d3 f5 7f 3a
       -0.14762545 0.08065594 -0.067572564 0.00097641087
000330 5a 12 b3 bd 24 85 1d 3d 78 c1 af 3d ee 4f 13 be
       -0.08743735 0.03845705 0.08581823 -0.1438596
000340 80 ac 14 3d 87 08 86 bd 72 c1 2a 3d 25 da 99 bd
       0.03629732 -0.06544595 0.04168839 -0.07512311
000350 a0 a4 11 bd 24 25 9c 3d 3a 63 39 3d 78 64 2c 3d
       -0.03555739 0.076242715 0.045260645 0.042088002
000360 7e f8 64 bd 04 d5 ce 3c 56 2c 91 bc cf c0 58 bd
       -0.055901043 0.025248058 -0.017721336 -0.05291825
000370 7b 55 94 bd cb 0a 0e bd f0 0f 1e bc 86 80 a0 bc
       -0.072428666 -0.03467826 -0.0096473545 -0.019592535
000380 36 fd 74 bd f5 c0 0e 3e 40 44 89 3d fe 95 16 3e
       -0.059811793 0.13940795 0.06702471 0.14705655
000390 4e 58 e8 3c 69 89 90 bd 3c 0b 1a bd 20 b9 cd 3b
       0.02836242 -0.07057459 -0.03760837 0.006278172
0003a0 3c 58 ff 3d ea 92 13 3d fc 46 40 bd 0f 4c ad bd
       0.12468001 0.03602878 -0.046942696 -0.08461773
0003b0 06 ca df 3d e1 4c 9a bd 2e 67 b5 bd fe 3a ea bc
       0.10927205 -0.07534195 -0.088575706 -0.028592583
0003c0 4a 83 de 3c 06 5b 88 3c f3 3c 9e 3d ee 39 1e bd
       0.027162213 0.016644966 0.07726469 -0.038629465
0003d0 d6 b1 01 bc 1e f3 9d bd b8 9b c7 3d 4a c3 49 bd
       -0.007915935 -0.077123865 0.09746498 -0.049258508
0003e0 24 ae 31 3d 6b 10 4e 3d 71 96 04 be 90 aa 6c bd
       0.043378964 0.050308626 -0.12948014 -0.05777985
0003f0 e7 26 f5 3c 26 5b 32 bd 56 ce 1b 3d 9d e4 ba 3d
       0.029925777 -0.043543957 0.038038574 0.09125636

bias f4 [64]
000000 5d 09 29 bd 6c e8 5c bd 55 fb dc 3c 43 d8 1e 3d
       -0.041268695 -0.053932592 0.026975313 0.038780462
000010 33 9b 3f bc dd 79 ce bc 35 2d 82 bd d6 1c 27 bd
       -0.011694717 -0.025204593 -0.06356279 -0.040798984
000020 55 4e 80 bd f4 34 16 3d d9 3e bf 3c e8 7f 35 3c
       -0.06264941 0.036671594 0.023345398 0.0110778585
000030 41 b5 e5 3c 7a 90 04 3c 0d a3 02 be 61 5f 82 3c
       0.02804053 0.0080910865 -0.12757511 0.01591462
000040 47 d0 08 bd 5c 2d 81 3c f4 48 1e 3e 78 f5 df bd
       -0.033401754 0.0157687 0.15457517 -0.10935491
000050 31 b9 5b bd 14 cd 0f 3d 0a bc 96 bd b3 ca 9d 3d
       -0.05364341 0.035107687 -0.07360084 0.077046774
000060 4b 16 84 3d 81 59 19 be e1 4d 40 bc 2e 7c 33 3d
       0.064495645 -0.1497555 -0.011737318 0.0438196
000070 df 2c 0f 3e 8f 67 c4 3d 53 2f 55 ba 15 a7 86 bd
       0.1398196 0.09590065 -0.0008132357 -0.06574837
000080 0f 03 90 3d d7 5b d7 bd 11 8f ce bd 89 03 4c bd
       0.070318334 -0.10515564 -0.100858815 -0.04980806
000090 db 02 25 3c a1 d6 b3 bd c8 7c 26 3d 89 62 57 3d
       0.010071482 -0.087811716 0.040646344 0.052584205
0000a0 20 aa be bc d0 91 12 ba 8e 1a 2f bd f3 c0 5a 3d
       -0.023274481 -0.0005591186 -0.042749934 0.053406667
0000b0 7d 5e bc ba e8 0f 23 3d a2 ec 85 3c b5 e1 78 3c
       -0.0014371421 0.03981009 0.016348187 0.0151905315
0000c0 90 86 dc 3c cf 19 0c bd a1 51 1b bd 71 54 95 bd
       0.026919633 -0.0342043 -0.037919644 -0.072914965
0000d0 53 1d 58 bd df c7 e4 bc fc 9d f7 bd 3a f9 68 3d
       -0.05276234 -0.027927337 -0.1209068 0.056878306
0000e0 9c 29 0f bd 14 1c 8e bc 9f 3d 3e bd e7 11 e8 bd
       -0.03495179 -0.017347373 -0.046445485 -0.113315396
0000f0 dd 80 be 3d 9d 6c 8b bc 27 f2 ea 3c f1 23 35 bd
       0.093019225 -0.017019564 0.02867992 -0.04422373

weight f4 [64, 64, 2, 2]
000000 fc 5b a8 bd 88 c9 ee bc 8e 6b 88 bd dd 1d 03 3d
       -0.082206696 -0.029148832 -0.066611394 0.0320109
000010 2a 99 bb 3d 46 f6 02 bc a3 f2 08 bd 3a 3e d0 3d
       0.09160073 -0.0079932865 -0.03343452 0.10168119
000020 18 7b b7 3c a0 be 8c 3d 2a f9 2f bd ff 04 02 3c
       0.022397563 0.06872296 -0.04296223 0.0079357615
000030 e6 48 4e bd ae ab ab 3d 68 68 35 bb b1 27 e3 bd
       -0.05036249 0.08382355 -0.002768064 -0.11091555
000040 7e ef d7 bc 06 72 ec bd e5 40 69 3d ab b8 a0 3d
       -0.026359316 -0.11545186 0.056946654 0.078477226
000050 1d 82 6b 3e d4 b5 fb bc 93 4a 54 3d 8f 96 80 bd
       0.22998853 -0.03072635 0.051828932 -0.06278717
000060 92 49 1d bd c9 d8 c5 3c 09 8a d6 3c 61 1a e8 3c
       -0.03840024 0.024151223 0.026188867 0.028332891
000070 8c 32 a9 bc 8c ee 34 3d 93 5a 2f 3d 9a dd 87 bd
       -0.020653985 0.04417281 0.042810988 -0.06634064
000080 58 82 11 bd 45 7c 83 3b f9 dd e5 bc 37 de e7 3c
       -0.035524696 0.004012617 -0.028059946 0.028304202
000090 e4 18 d5 bd 9a 6f 8f bd 95 00 ad bd 8d 5a 76 3d
       -0.10405138 -0.07003708 -0.08447377 0.06014495
0000a0 24 72 8a bd c3 f7 00 bd bb 3b f2 bd a6 09 0d be
       -0.06760052 -0.031486284 -0.11827799 -0.13773212
0000b0 e2 2b 70 3d 1c 39 f1 3c 5a fc 6f bd a0 6e 75 bb
       0.0586356 0.029446177 -0.05859027 -0.003744997
0000c0 dd 9d 05 bd 85 03 08 bd 21 a9 95 bd 56 eb 51 bd
       -0.032621253 -0.03320648 -0.073076494 -0.051249824
0000d0 03 f7 39 3d c6 48 00 bc 6c 6c a3 3a f2 17 78 3d
       0.045401584 -0.007829851 0.0012468225 0.06056971
0000e0 59 a2 cb bc 74 e4 02 3d 58 35 7f 3d 80 46 91 bd
       -0.024857687 0.03195615 0.062306732 -0.07093525
0000f0 cf e9 07 bd d0 9a 93 3c 74 ca 13 3d 63 1b f4 bd
       -0.03318196 0.018018156 0.036081746 -0.11919286
000100 8b 4d 9f 3c c5 12 0d bd 93 b5 36 3d 96 c6 0d bc
       0.019446155 -0.03444173 0.044606756 -0.008653304
000110 bb 04 d2 bb de ad c6 bc 24 01 05 3e 47 90 ec 3c
       -0.0064092553 -0.024252828 0.12988716 0.02887739
000120 d1 9a da bc a8 81 e2 3d 3e 9b 51 3d 02 d6 fc bc
       -0.02668515 0.11059886 0.05117344 -0.030863766
000130 8d a9 82 bd fd dc a1 bc 6a 23 64 bd 93 6f d5 bc
       -0.063799955 -0.019758696 -0.055697836 -0.02605418
000140 81 49 0d bc 22 5a 53 3d 7f 0b 8f bc ea 74 57 bd
       -0.008623482 0.05159963 -0.017461536 -0.052601732
000150 e8 1c 8d 3c 2c dd 8c 3c 90 8b c8 3b 58 a6 67 3d
       0.017225698 0.017195307 0.006120153 0.056555122
000160 b8 6e c3 3c bc d1 28 bc f1 07 4a 3d 07 0f 1c 3d
       0.023856506 -0.010303911 0.04932398 0.03810027
000170 5e 56 5b 3d 18 11 a3 bc 88 a5 eb bd ed 73 d5 bc
       0.053549163 -0.019905612 -0.11506182 -0.026056254
000180 b9 2b cf bd 2e 49 c3 bc d0 d0 51 bd f3 59 94 3c
       -0.10115761 -0.023838606 -0.05122453 0.018109297
000190 41 12 a7 bb d0 cc a2 bc eb 74 8f 3d b6 a2 2b bd
       -0.0050986116 -0.019873053 0.07004722 -0.04190322
0001a0 6b f4 20 3d b2 53 fb bc de 33 54 bd 6e 59 25 b9
       0.039295595 -0.030679557 -0.051807277 -0.00015768941
0001b0 bb a6 3e 3c c0 14 a2 3c 9d d0 2a bd 10 d7 ee 3c
       0.011636431 0.019785285 -0.041702855 0.029155284
0001c0 60 9a 80 bd 6c 0e c8 bc 1b 4a b7 bd c2 d5 56 bb
       -0.06279445 -0.02442094 -0.08949681 -0.0032781218
0001d0 cc 9d 2f be 04 2e 02 3e be 77 cf bd 45 69 85 3d
       -0.17150038 0.12712866 -0.10130261 0.06514219
0001e0 1f e9 05 3e 28 b5 6f 3b 1e 7e ac bd ad 87 a2 3d
       0.1307721 0.0036576483 -0.084224924 0.07936034
0001f0 f0 98 3c 3c 12 13 1e 3d 03 2a de 3c fd c4 b1 3b
       0.0115110725 0.038592406 0.027119642 0.005425094
000200 c3 cf 93 3d c5 11 01 3c 49 96 b9 3d b7 5c b8 bd
       0.07217362 0.007877772 0.09061868 -0.09002059
000210 29 f8 2a 3d 50 eb 32 3d 0a 25 0a 3e a4 2e d5 3c
       0.04174057 0.043681443 0.13490692 0.026023217
000220 ae c6 1e 3e 5c 8f 0a 3d b0 ca fe 3c 39 08 a7 bd
       0.15505478 0.033828124 0.031102508 -0.08155865
000230 ab ff 8f 3c 81 8d f5 bd e8 09 24 be 4c 72 86 bd
       0.017577967 -0.1198988 -0.16019404 -0.06564769
000240 b8 42 f8 bc 88 6f 52 3d 9f 6a 13 bc 9b 5d d0 3d
       -0.030305251 0.051375896 -0.008997588 0.10174104
000250 b8 24 e4 bd 3c d0 27 bd aa 35 0d 3d 10 52 37 3b
       -0.11139816 -0.040970072 0.034475006 0.0027972497
000260 df fc 2b 3d f5 d3 3f bd f5 6a 80 3d 58 b6 72 3c
       0.041989204 -0.046832997 0.062704004 0.014813982
000270 a4 57 44 3d a7 d8 6e 3d 02 00 06 3d a1 a8 0a 3e
       0.047935143 0.058312085 0.03271485 0.1354089
000280 80 2d 76 bd c5 be 11 bc 4d f4 7c bb 07 1d a7 bb
       -0.060101986 -0.008895581 -0.0038597763 -0.005099896
000290 13 6b b4 3b 6e 40 63 3d 95 ba 28 bd 12 2d 89 3d
       0.0055059283 0.055481367 -0.041193563 0.066980496
0002a0 84 a6 0b bd de 4e 5f 3c b9 33 9c bc 05 27 49 bd
       -0.03409435 0.013629643 -0.019067632 -0.049109478
0002b0 17 4a c0 3d da 30 0d 3d 53 ff 2d bd 07 11 2a bd
       0.093891315 0.034470417 -0.042479824 -0.041520145
0002c0 63 12 2b 3d ac 4a 2c ba 59 6e 1e 3e 3f da 9e 3c
       0.04176558 -0.0006572406 0.15471782 0.019391177
0002d0 7d 26 b6 3c 0e 8c 0c bd 3b 24 a4 3d a1 ed 55 3d
       0.02223515 -0.034313254 0.08014723 0.052228574
0002e0 ee c4 b6 3d 89 a3 27 bd 80 9e 91 3c 46 c7 c8 3d
       0.0892428 -0.040927444 0.017775774 0.098036334
0002f0 0c 4c 72 bc 70 03 18 be a7 12 24 3c fe e5 00 3d
       -0.014788639 -0.14845061 0.010014213 0.031469338
000300 4c 9e d9 bd a9 33 6b bc 74 70 3d 3d f2 ba a3 bb
       -0.10625896 -0.014355578 0.04624982 -0.004996651
000310 a9 e4 ac 3d 58 13 56 bd e0 b9 5b bc 2f bc bd bd
       0.08442051 -0.05226454 -0.013411015 -0.09264409
000320 d7 ba 79 bd 4c 7e 84 3d 39 69 e7 3c b4 29 50 bd
       -0.0609692 0.06469402 0.028248416 -0.05082102
000330 a9 61 a7 bd a7 47 d3 3d e5 0f bd 3d 23 08 37 3d
       -0.08172924 0.10316401 0.09231547 0.044685494
000340 c5 b3 bb 3d 9f a2 5d bd c0 0f 95 3c 2c 83 b5 bd
       0.09165148 -0.054110166 0.018195987 -0.0886291
000350 5c 77 d8 3c 47 ab c4 3d f6 50 77 bd 9f 38 85 3c
       0.026424102 0.09602981 -0.060379945 0.01626235
000360 4e 89 f7 bd f4 65 7c 3c 13 19 2b be a7 1b 86 bc
       -0.12086736 0.015405167 -0.16708784 -0.016370608
000370 b6 ae 1e 3e 33 c4 ce 3d b2 d3 dc 3d 6f 8c 31 3d
       0.15496334 0.10096016 0.10782565 0.04334682
000380 b9 25 4f bd 7d 3c fb bc 2b 44 e7 3c 6c 3f 1c bd
       -0.050573085 -0.030668491 0.028230747 -0.03814642
000390 29 b7 4e 3d 8e 7e 26 3c 60 25 dc 3d bf a8 16 ba
       0.050467644 0.010162009 0.10749316 -0.0005747191
0003a0 e9 db 8a 3d 0d a5 04 3d b1 1e 60 3d 8c ec 6f 3c
       0.06780226 0.032383967 0.05471677 0.0146437995
0003b0 13 37 76 3d 9b 18 46 bd 3e ee 42 bb 3c 49 27 bd
       0.060111117 -0.04836331 -0.0029744054 -0.040841326
0003c0 a6 02 96 bd 68 39 a6 3a 07 f1 e1 3c 8e ae 4b bd
       -0.07324724 0.0012681903 0.027580751 -0.049727015
0003d0 ee 5d 42 bc 61 f9 64 bd b5 d3 97 3d 77 cc 7c bb
       -0.011863215 -0.05590189 0.07413427 -0.003857402
0003e0 d4 ba f5 bb 33 86 60 bd c6 86 ca bc a5 0c 94 bd
       -0.0074990783 -0.054815482 -0.024722468 -0.07228974
0003f0 97 7d 45 bd 2b aa b4 3c c8 a3 7c 3d 8f 75 94 3c
       -0.048215475 0.022053799 0.06167963 0.018122463

bias f4 [64]
000000 28 9a 40 3d 73 1f 6f bd 7b f0 e4 bb eb c9 e8 bc
       0.047022015 -0.0583796 -0.0069866753 -0.028416594
000010 c7 cd 5e 3d f1 82 b9 ba 34 00 a1 3b 0a 58 33 3d
       0.054395463 -0.0014153403 0.0049133543 0.043785132
000020 df d2 b5 3d 7a 6a 31 3d 62 e7 a2 3b cc 4c 39 bd
       0.08878111 0.043314435 0.0049714306 -0.045239255
000030 d9 a3 e3 3a 6c da ba bb 78 56 c3 3d 48 42 02 be
       0.0017367556 -0.0057023074 0.09537977 -0.12720597
000040 89 c6 a5 3b ec a7 7e bd c2 96 2b 3c 60 72 bc 3c
       0.0050590676 -0.06217186 0.010472955 0.023003757
000050 c9 48 11 bd 7f 2d ef bc df 5d 31 bd 1b 2a 82 3c
       -0.035469804 -0.029196499 -0.043302413 0.015889218
000060 60 b1 e8 bc c4 86 bc 3d 55 b8 65 bc cd c9 47 3b
       -0.028404891 0.09205392 -0.014020999 0.0030485273
000070 ce 02 d4 bd 2b fe 1c bd 17 9b 9c 3d 25 e9 dc 3c
       -0.103520975 -0.03832833 0.076467685 0.02696664
000080 8b e8 db 3c 07 a6 40 bd 8d d7 0c 3b 82 67 79 3d
       0.026844284 -0.047033336 0.0021490783 0.06088973
000090 cc 0d 8f 3d e5 40 f5 bc a8 3e 39 3d b7 b8 10 bd
       0.069850534 -0.02993817 0.04522577 -0.035332408
0000a0 1d 9d 1a bd 12 7e b5 bb 13 85 00 3c 4f 94 11 3d
       -0.03774749 -0.0055387104 0.007844227 0.03554183
0000b0 8f f1 7b bd 42 6f b3 bd 27 24 5b bc ba 88 e7 bc
       -0.061509665 -0.08761455 -0.013375319 -0.028263438
0000c0 8b 09 00 bd 7e 36 81 3d 8c b6 20 be 25 19 c4 bc
       -0.0312591 0.06309222 -0.15694636 -0.023937771
0000d0 2e cd 07 be 60 c2 d7 bb 4b 22 78 3d 18 21 e7 bb
       -0.13261864 -0.0065844506 0.06057958 -0.0070535056
0000e0 f6 db c5 3d 61 67 ab 3c 48 21 58 3d 5a de 8a bd
       0.09661095 0.020923318 0.052766114 -0.067806914
0000f0 20 b6 96 bb 09 00 73 3d 68 8d 8f 3d 0b 6d 60 3d
       -0.0045993477 0.059326205 0.07009393 0.05479149

weight f4 [64, 768]
000000 23 ce 19 bd 68 5d 40 bc 73 c6 3c bc 86 64 1d bd
       -0.037550103 -0.01174102 -0.011521923 -0.038425945
000010 31 75 b7 bd 91 8c d2 bb 75 d7 ea 3d 94 d3 ca bc
       -0.08957899 -0.006425448 0.114668764 -0.024759091
000020 58 2b 17 bc 76 1d 96 bd 9c 72 cd 3c 10 71 19 bd
       -0.009226643 -0.07329838 0.025079064 -0.03746134
000030 43 7b 90 bd 9b 94 a2 3d 4b 33 ee 3c 42 62 de 3b
       -0.0705476 0.079385005 0.029077193 0.0067866156
000040 9c 72 19 3d df 01 73 3a e9 e4 1c bd 45 25 b8 bb
       0.037462816 0.0009269993 -0.038304243 -0.0056196772
000050 d1 76 1d bd cf 75 62 3d a1 60 88 bd fc fe 85 3c
       -0.03844339 0.055288132 -0.066590555 0.016356938
000060 e0 8d 8d 3c 1f ce 3d 3d a0 2c 9b 3c 96 21 04 bc
       0.017279565 0.04633915 0.018942177 -0.008064648
000070 d8 90 e8 3a 24 fd ea bc 75 34 33 bb f5 9d 9a bc
       0.0017743362 -0.02868516 -0.00273445 -0.018874148
000080 29 f9 29 bd e5 da 32 3d 59 60 96 3c 85 10 52 bd
       -0.041497383 0.043665785 0.018356489 -0.051285286
000090 68 d0 d3 bc 8d a3 80 3a a4 cd 88 3c 95 29 d5 bc
       -0.025856212 0.0009814367 0.01669962 -0.026020804
0000a0 c6 f3 32 3d 03 9e 06 bd df ea d0 bc 1a 70 3f 3c
       0.04368951 -0.032865535 -0.02550262 0.011684442
0000b0 e7 48 a6 bc e8 42 e2 3c c5 99 31 3c 6e 90 e5 bc
       -0.020298434 0.027619794 0.010839884 -0.028022971
0000c0 11 e3 c6 3c ee c6 5e bc bc d0 f5 3a e4 01 9c 3c
       0.024278196 -0.013597233 0.0018754224 0.01904387
0000d0 26 9d 53 bd fd 96 b8 3c fe 8e a1 3c 1e d6 8e 3c
       -0.05166354 0.022532934 0.019721504 0.017436083
0000e0 45 d5 6d 3c 0b 96 dc 3c ba 5f 9d 3b bb 8e 3c bd
       0.014516179 0.026927015 0.0048026713 -0.046034556
0000f0 77 70 11 3c 62 04 1e bd 10 3a 10 3c 01 a0 e4 bc
       0.008876911 -0.0385784 0.008802906 -0.027908327
000100 71 94 42 3c 8c 66 5e 3d eb 8e ee 3c d2 a3 26 bd
       0.0118762115 0.054297015 0.029120883 -0.040683575
000110 1a ee 80 3b cd d4 20 bd 4d ec d6 bc b2 9c 02 be
       0.003934634 -0.039265443 -0.026235724 -0.12755087
000120 18 4e 5c 3d 5d 8a 31 3d 65 56 26 bd 2c 8f 59 3d
       0.053785414 0.043344844 -0.040609736 0.053115055
000130 a8 1a 73 3a a2 16 b1 bb a1 3d 91 3d 20 55 85 bd
       0.00092736864 -0.0054043094 0.07091833 -0.06510377
000140 09 91 45 3d aa 5d 17 bd 77 d1 82 3a 4c 00 f6 3b
       0.04823402 -0.03695456 0.0009980638 0.0075073596
000150 82 6b 47 bd 07 74 6e bd 99 e0 9f ba 44 e6 fa bc
       -0.04868651 -0.05821612 -0.0012197673 -0.030627377
000160 8b 19 9b bc 2c eb 61 bc ba e2 38 bd ae 27 5c 3d
       -0.018933078 -0.0137889795 -0.0451381 0.05374878
000170 35 b9 51 bc 23 dd 3a 3b dc be 0c 3c 31 ad b4 3c
       -0.012800504 0.0028513155 0.008590426 0.02205524
000180 60 46 f0 3c d7 c5 22 3d 6d e8 16 bc 8b f8 9b bc
       0.029330432 0.039739456 -0.009210688 -0.019039413
000190 f5 98 46 3d 22 4b 53 3b df 81 0b bd 4d 80 3a bd
       0.048485715 0.0032240828 -0.0340594 -0.045532513
0001a0 69 4f b2 bc 7f dd 89 3b ef fc 85 3c 87 5b a1 bd
       -0.021766381 0.0042073126 0.01635596 -0.078787856
0001b0 5c fb 2d 3c ca 5a 49 3d ee 13 54 bc 4f 64 61 3b
       0.010619011 0.04915885 -0.012944205 0.0034392064
0001c0 dc eb bd bc d4 f1 69 bd a7 1d 80 bc 20 72 1e bd
       -0.023183756 -0.05711539 -0.01563914 -0.038683057
0001d0 d5 c4 92 bd 13 14 6f bd 33 4b 63 bd f6 cb 7f ba
       -0.07166449 -0.058368754 -0.055491637 -0.00097578706
0001e0 34 d6 17 3d 81 88 da 3c 0f d5 22 3d 50 07 39 bd
       0.037069514 0.026676418 0.03975397 -0.04517299
0001f0 e7 d5 3a 3d 06 20 02 bd aa 2f 1c 3c 16 89 a3 bc
       0.04561415 -0.03176882 0.009532848 -0.019962829
000200 db de 4b bd 87 e5 cd bb d0 85 05 3d 85 8d 31 3c
       -0.04977308 -0.0062834653 0.032598317 0.010836964
000210 f0 ad 3c bd ce 7a 8b bd 82 6d 8f 3c f1 d7 8f 3d
       -0.046064317 -0.068105325 0.017508272 0.070236094
000220 69 29 9f 3c a7 10 9c bb 33 2e 59 3d 59 d3 9b 3a
       0.019428926 -0.0047627273 0.053022575 0.0011888548
000230 7b a3 05 3c f0 65 2d 3d bc 0e a3 b8 0e c0 6a 3d
       0.008156653 0.042333543 -7.77519e-05 0.057312064
000240 70 21 b6 bd bb 81 2b bd 1a e4 3c 3d 33 a4 12 3d
       -0.088930964 -0.041871767 0.046115972 0.035801124
000250 36 7a b3 3d 80 8a 07 bd 7a f8 2f bd d1 d1 03 bd
       0.08763544 -0.03309107 -0.042961575 -0.03218252
000260 6f f2 e8 3c 74 be f5 3c bd db 0f bd 4b a7 9e 3c
       0.028435914 0.029998042 -0.035121668 0.01936688
000270 09 6e 3a ba 1d cb c5 bc 82 e5 41 3d 57 ff 3f bd
       -0.00071117334 -0.024144704 0.047338016 -0.04687437
000280 ba 82 14 bd bc ba 92 bc 13 93 e4 bc 31 85 49 3d
       -0.036257483 -0.017911308 -0.027902162 0.049199287
000290 39 11 9e 3c 76 f2 2f 3d 65 7f 38 3d 6c 08 58 3d
       0.019295322 0.04295584 0.045043368 0.052742407
0002a0 6b 9d e9 bb 7c 5e 8e 3d 50 d7 11 bd 23 af 5f 3d
       -0.0071293614 0.06951615 -0.03560573 0.054610383
0002b0 83 0e a7 bc 54 44 ad 3a 8a e7 d6 3c f8 71 22 3c
       -0.020392662 0.0013219216 0.026233453 0.009914868
0002c0 19 63 39 3c d2 77 21 bc 6a 53 e2 3b 8d f6 d5 bd
       0.011315131 -0.009855228 0.0069069164 -0.104474165
0002d0 1c 6c af bc 0e f9 dc 3b 76 e1 79 3c 70 ad 0e 3d
       -0.021413855 0.006743557 0.015251508 0.03483337
0002e0 ac 30 41 3d 35 8f bf 3b 55 e9 23 bd f6 bd 75 3d
       0.047165558 0.005845929 -0.040017445 0.059995614
0002f0 ad 1d 4c bd 41 62 39 3b ea f9 a0 bc e8 3e e4 bc
       -0.04983299 0.0028287324 -0.019650418 -0.027862027
000300 d3 ed 7a 3d 78 63 ce 3c 24 fd dd 3b 84 09 8a 3c
       0.061261963 0.025193915 0.0067745615 0.01685024
000310 60 23 a1 bc b0 3f c8 3c 20 76 33 3d 46 95 e5 bb
       -0.019670188 0.024444431 0.043813825 -0.00700632
000320 ab 4c 24 bd e4 47 0b bc f7 68 e6 3c 49 b4 42 bd
       -0.04011218 -0.008501027 0.028126223 -0.047535215
000330 e3 fd 03 3d 9d 6c 14 bd fa 77 2e bb 2c 0f 4e bc
       0.032224547 -0.036236394 -0.0026621805 -0.012576859
000340 fc 62 30 3d 21 27 94 bc bc 52 f3 3c 8d f5 70 bc
       0.04306315 -0.018085064 0.029702537 -0.014706981
000350 52 3c ae 3c ed e3 07 3c 75 7b 8e bc 43 af 06 bc
       0.021268997 0.008294088 -0.017392853 -0.008220497
000360 4c 3e 1c bc 2e c2 3d bd e4 3c 46 3d 50 1f b2 bc
       -0.009536337 -0.046327762 0.048397914 -0.021743447
000370 1b 8e bc bb 6e 1e 8d bc 97 21 20 3d 3f d3 a6 3c
       -0.005754245 -0.017226424 0.039094534 0.020364402
000380 00 ef 9e bb e2 73 46 ba 26 ea 9e 3b 85 8b 4e bd
       -0.0048502684 -0.00075703685 0.00484969 -0.050426025
000390 95 8b 8e 3c da 7b 54 bc 3c a4 48 bd 89 de 2c bd
       0.017400542 -0.012968982 -0.04898475 -0.042204414
0003a0 e7 15 cf bc 04 cf 5b bd 31 5b 02 3d a9 7f 2d 3c
       -0.025278999 -0.053664222 0.03182525 0.010589519
0003b0 35 bb 76 bc 1e b5 7f 3d 14 85 7e bc 43 6d 0f 3d
       -0.015059282 0.062428586 -0.015534658 0.03501631
0003c0 e4 ae c2 3c f5 4e 4e 3c 96 c4 94 3c 72 25 8e 3c
       0.023765035 0.012592067 0.018160146 0.01735184
0003d0 dc 4b b5 bb 23 27 c0 3c 95 7f dc bc 4d e1 58 bd
       -0.005532725 0.023456162 -0.026916305 -0.05294924
0003e0 27 98 29 bd 71 97 1b bc 4a 9f 11 3a 98 ad 8f bc
       -0.04140487 -0.009496556 0.0005555047 -0.01753883
0003f0 c2 a9 af bb 91 f8 8e 3d 9f f9 df bb 08 f3 44 bd
       -0.005360813 0.06981004 -0.006835177 -0.048083335

bias f4 [64]
000000 d7 3a e7 bb 9a 05 e6 3c e9 34 6a bc 0d dd 03 3d
       -0.007056575 0.028078843 -0.014294841 0.032193232
000010 46 b1 87 3b ee 32 95 bc ee 84 bb 3c 89 3e a9 bb
       0.0041410057 -0.018212762 0.022890534 -0.0051649255
000020 c8 32 63 bc e7 dc ba bb 12 7f 29 3b e0 12 4f bd
       -0.013867088 -0.005702603 0.0025863093 -0.05055511
000030 66 5a c3 3c 0d 97 1a 3d 0d df 91 3b 0d ca 80 b9
       0.023846816 0.03774171 0.0044516386 -0.00024564602
000040 54 09 50 3d 7b 1e e3 bc a4 c7 75 ba 8d d9 ea 3c
       0.050790146 -0.027724495 -0.0009375757 0.02866819
000050 de 8b 53 3d 37 19 c3 bc 64 37 08 bc 9a 71 3f 39
       0.05164706 -0.023815734 -0.008313987 0.000182575
000060 49 63 a3 bc ff 5f 1f bd 36 25 d6 bb 4a 5f 06 bd
       -0.019944804 -0.03890991 -0.0065351976 -0.03280572
000070 1c 9d 49 bc fe 43 ac bc 4d 4c db bc 40 1d 2f 3c
       -0.012305524 -0.021028515 -0.026769781 0.010688126
000080 5b 92 d1 3c fb 5c c0 bc 5a 94 35 3d bf 7c 05 bd
       0.025582483 -0.023481837 0.044330932 -0.03258967
000090 88 75 2f 3c 9d 9b 6f bd 76 19 55 bd f6 6b 07 3d
       0.010709174 -0.058498014 -0.052026235 0.033061944
0000a0 53 66 f1 3c 75 88 81 bc 39 20 7c 3d cf 79 44 bd
       0.029467737 -0.015812138 0.061554167 -0.04796773
0000b0 c0 d1 bf 3d 6e 9f be bd 95 b7 b3 3c ce 39 22 3b
       0.093661785 -0.093077525 0.021938125 0.0024753693
0000c0 d6 7f c9 bc 2c b7 08 bd 08 55 64 bd d2 b0 35 bc
       -0.02459709 -0.03337781 -0.055745155 -0.0110895205
0000d0 92 84 76 bc 4f 8a 28 bd 94 15 b3 bc 2a 1c 05 3d
       -0.015046256 -0.041147526 -0.021860875 0.032497562
0000e0 0d 19 3f bd d4 4e 62 3d 32 9c 06 3d 83 02 59 bd
       -0.04665475 0.055250958 0.032863803 -0.05298091
0000f0 bf 3d 9b 3d 02 14 ce bc a5 c2 3f bc 11 54 f9 bb
       0.075801365 -0.025156025 -0.011704122 -0.0076088984

weight f4 [32, 64]
000000 8d 11 c4 3c c0 79 91 3c d0 90 00 3b c7 e9 03 3e
       0.02393415 0.01775825 0.0019617565 0.12882148
000010 e6 88 d9 bd 94 7c 66 3d 24 3a 20 3d 59 1b b2 bd
       -0.106218144 0.05627115 0.039117947 -0.086966224
000020 12 70 5d 3d 28 78 c2 3c 4b 94 ec bd ea 44 c3 bd
       0.054061957 0.023738936 -0.11551722 -0.09534629
000030 56 e9 7c b9 f0 2c ec 3c 04 d0 db bd c8 ec bc 3d
       -0.00024119517 0.028830022 -0.10733035 0.0922485
000040 b1 b3 b2 bd 1f 12 b5 3d 5f 93 cc bd cd b2 5c 3d
       -0.0872568 0.08841347 -0.09989046 0.053881455
000050 0a c9 db 3c c7 eb af bd d0 19 b0 bd 36 d5 cf 3d
       0.026829261 -0.08589893 -0.08598673 0.10148089
000060 e1 67 4c bc 5f 45 3b 3d 9d 01 78 3d ac de a9 3d
       -0.012475939 0.045720454 0.060548414 0.082944244
000070 78 48 d5 3d 04 ff 8a bc 9e d0 84 bb 8f 30 b7 bc
       0.10414213 -0.016967304 -0.0040531894 -0.022362022
000080 1c 5e f7 bd b2 94 0a be 27 c8 85 bd cb 9b 32 3d
       -0.12078497 -0.13533285 -0.06532317 0.043605607
000090 08 ad 62 bd cd 09 e9 bd cf 1f 31 3c 27 e5 c1 bd
       -0.055340797 -0.113788225 0.010810806 -0.094675355
0000a0 28 54 bb bd 46 68 b4 bb 9f 76 b8 3d 50 15 ec 3d
       -0.09146911 -0.0055055944 0.09007 0.115275025
0000b0 94 30 2a 3d 24 e2 7a 3c 5f dd bd bd 07 d4 08 bd
       0.041550234 0.015312705 -0.09270739 -0.03340533
0000c0 8d 24 41 3d 28 c3 95 bd 88 11 97 3c 94 ee 94 bc
       0.047154 -0.07312614 0.018440977 -0.01818017
0000d0 1d 6c 15 3d f7 ea 04 be 81 dc c7 bd 3e 83 e7 3d
       0.036480058 -0.12980257 -0.09758855 0.11304329
0000e0 d9 b0 3a bd 9f a9 be bd 81 7c 15 3d c5 79 c6 bd
       -0.04557881 -0.093096964 0.03649569 -0.096911944
0000f0 24 e5 0b 3c fe 97 b6 bd 06 f6 52 bd 47 2c d6 3d
       0.008538518 -0.08915709 -0.051504157 0.10457664
000100 16 6a 32 bd 53 90 ef bb 94 90 42 3d f6 bf 3f bd
       -0.043558203 -0.007310906 0.04750116 -0.046813928
000110 26 4f db 3d a6 98 ac bd c6 c9 c5 3d 26 2d 36 bc
       0.10708456 -0.08427553 0.09657626 -0.011119163
000120 f6 77 bd 3d b3 ed aa 3d e9 61 93 bd 8f ae 17 3d
       0.09251396 0.08346119 -0.07196409 0.037031706
000130 0a 49 1b bd cb 80 29 3d 4c 8d c7 bc 79 df d5 bd
       -0.037911452 0.041382592 -0.024359368 -0.10443015
000140 eb 7a 03 be 1e 4d 01 be dc 76 02 be ac a1 1b 3d
       -0.12839858 -0.12627074 -0.12740654 0.03799598
000150 c6 30 7f bc d1 0d f2 bd cc ab ee 3d 59 de f2 3d
       -0.015575593 -0.118190415 0.116538614 0.11858816
000160 ec 20 dc bc eb 4a bb 3d a2 c9 8c 3d b0 e8 08 3e
       -0.026871167 0.09145149 0.06874396 0.13370013
000170 88 2b 24 bd 73 9a e4 3c 39 6a 70 bd 74 bc 76 bc
       -0.040080577 0.027905678 -0.05869505 -0.015059579
000180 8d a4 5e bd 48 9e 51 3c 8c ee 3e bd 02 fe 3f 3d
       -0.054356147 0.012794085 -0.046614215 0.0468731
000190 f5 f5 96 bd e6 7f b7 bd 69 3c 66 3d 1f c9 42 3d
       -0.07371131 -0.089599416 0.056209955 0.047555085
0001a0 eb be 5d 3c 9d 17 d1 bd b1 6e ab 3d 9e a0 00 be
       0.013534288 -0.10209582 0.08370722 -0.1256127
0001b0 18 ae 4c 3d e1 04 64 3d a0 ac f4 3c 00 ec 11 bd
       0.049970716 0.055668715 0.02986747 -0.035625458
0001c0 8c c1 b2 3d 2a 7c e5 3b 87 15 ca bd be cb ef bd
       0.087283224 0.007003327 -0.09867387 -0.117087826
0001d0 e6 3c c1 bd bc ed dc bd dc b1 1a bd 39 d5 e6 bd
       -0.094354436 -0.10787532 -0.037767276 -0.11271138
0001e0 de 53 ee bc f0 f7 df bd 06 b8 9c bd 5c 59 f0 bd
       -0.029092725 -0.10935962 -0.07652287 -0.11735794
0001f0 0f 68 9d bd 00 b4 8a bd 93 3f 84 3c e4 76 2d 3b
       -0.07685863 -0.067726135 0.016143596 0.002646857
000200 bc bb 8f 3d d0 a1 0f 3e 52 25 16 bd dd b6 a1 3d
       0.07018229 0.1402657 -0.036656685 0.078962065
000210 c6 2a 5c 3d 84 43 aa bd 8f 02 d1 3d fd bd a7 3d
       0.05375173 -0.08313659 0.10205566 0.08190534
000220 cd d1 01 3d ac c6 da 3d 4b 4e 9b 3d 72 58 d6 bc
       0.031694222 0.10682425 0.075832926 -0.02616522
000230 ef 79 59 3d ee 28 aa bd da 57 33 bd 60 0f b3 3d
       0.0530948 -0.08308588 -0.043784954 0.08743167
000240 47 b0 cc 3e 11 7b c8 bc d1 0d 7f 3e 03 f2 3b 3d
       0.3997824 -0.024472745 0.24907614 0.045885097
000250 e8 16 bf 3c 1c 7e 04 bd fd c9 50 3d ab 75 3c be
       0.023326352 -0.03234683 0.05097388 -0.18404262
000260 26 3e 05 3e d6 e8 d3 3d 7a c1 ef bc ab f8 97 3d
       0.13011989 0.10347144 -0.029267062 0.074204765
000270 41 b2 eb 3c 7f 93 5c 3d be 75 7b bd 5d 0e af bd
       0.028771522 0.0538516 -0.061391585 -0.085476615
000280 67 24 d4 3c a5 19 8e 3e 7a da 33 3e c7 2a 98 3d
       0.025896264 0.2775394 0.17563811 0.07430034
000290 b6 3d 5f be 7f 4a 6d 3d 71 6f 13 bd 3b 16 66 3b
       -0.21800885 0.057932373 -0.03599495 0.0035108465
0002a0 15 a7 01 be 59 87 cb bd 79 5b 68 3c 31 fb 2e 3d
       -0.12661393 -0.09937925 0.014181965 0.042720024
0002b0 1d bb de bc 38 7c 08 be 00 83 b7 3e f9 ce 78 3e
       -0.027188832 -0.13328636 0.35842133 0.24297704
0002c0 52 18 5a 3e 5a fa 1a 3d dd 70 12 3c c3 23 be bd
       0.2129834 0.03783641 0.0089380415 -0.09284165
0002d0 8d 9b b1 3d 31 32 46 bd 44 5a b0 bd 1f 40 1f 3e
       0.08672247 -0.04838771 -0.08610967 0.15551804
0002e0 39 32 71 3d ed 99 a7 3c 61 ae 10 be 42 86 ce bd
       0.058885787 0.02045914 -0.1412902 -0.100842014
0002f0 62 73 b0 be 2d 86 5a bd 3f b8 bd bc 4d 7a 5f bd
       -0.3446303 -0.053350616 -0.023159144 -0.054559994
000300 6a 12 04 3c 11 1f 84 be 99 25 7d 3c 57 5b 34 be
       0.008061031 -0.25804952 0.0154508585 -0.17612968
000310 04 45 21 3e ec 6e 3b bd ad b1 e9 bd fc dd 99 be
       0.15748984 -0.04576008 -0.11410842 -0.30052173
000320 cf 1a 1d 3d ae b9 7d 3d 23 5b 0e 3f b1 5a 2b be
       0.038355645 0.061944656 0.55607814 -0.16733815
000330 4d 32 87 3d 61 e8 99 3c 96 1d 90 be 27 1e a2 3e
       0.06601391 0.018787565 -0.28147572 0.3166363
000340 e4 9e 76 3b 89 b2 31 3e 58 c8 e5 bd db ab e1 3d
       0.0037631327 0.17353262 -0.11219853 0.11019107
000350 18 a8 3f be e5 f5 45 3e 52 b1 5c 3e d8 fd bb 3e
       -0.18716466 0.19332083 0.21552017 0.36717105
000360 bb 33 06 be e7 c4 92 be 9a df d3 bd 7a 7c db bd
       -0.13105671 -0.2866585 -0.10345383 -0.107171014
000370 80 94 3d 3e b1 ae 11 be d3 f3 5b be 97 60 27 be
       0.1851368 -0.14226796 -0.2147973 -0.1634544
000380 81 9b 8d 3d be 17 12 3f db c1 34 be e9 36 77 3e
       0.06914426 0.5706748 -0.17652075 0.2414204
000390 5b 51 cd bd 5d e8 99 bc 9f d9 15 be f3 03 cc 3e
       -0.10025283 -0.018787557 -0.14633797 0.39846763
0003a0 2e 33 91 3e 9e 8b 47 3e b4 f5 83 3e e5 af 33 be
       0.2835936 0.19486853 0.25773394 -0.17547567
0003b0 4b 60 a3 be 1d 2d 1e be 15 c4 04 be d9 2a 8b 3e
       -0.31909403 -0.15446897 -0.12965424 0.27181128
0003c0 61 82 7c bd 2c bb 54 be bb 3a 04 3e 04 0c 05 3d
       -0.061647777 -0.20774525 0.12913029 0.032482162
0003d0 7b 1b 56 bc fc 5b 3f be 17 5b 6c be c9 f9 70 3e
       -0.013068075 -0.18687433 -0.23081623 0.23532785
0003e0 89 93 a3 3d 52 b7 a3 3d cb 42 af bd 33 72 36 bc
       0.079871245 0.0799395 -0.085576616 -0.011135626
0003f0 01 f5 dc 3e a9 f6 25 3e 11 b1 19 3c db 6d 07 3b
       0.43155673 0.16207375 0.009380595 0.0020664844

bias f4 [32]
000000 3b 31 d7 bd cb 63 e2 bd b0 85 4a bd 31 13 5b 3e
       -0.10507437 -0.1105419 -0.0494439 0.2139404
000010 8d 4f ba bd f9 bb d6 3e 91 d3 93 3e 34 01 1a 3e
       -0.09097204 0.41940287 0.2887235 0.15039521
000020 6c 56 ac 3d d4 98 49 3e 9e 8d 8f 3d d7 a0 c3 3c
       0.08414921 0.19687206 0.07009433 0.023880405
000030 ac d4 3d 3d 4f 9c 0f 3e 67 85 9c 3d bf d4 56 3d
       0.046345398 0.14024471 0.07642632 0.052448984
000040 01 de 3c 3e 39 c9 7e 3d 82 31 35 bd 11 b4 bd bd
       0.18444063 0.06220362 -0.044236667 -0.092628606
000050 1b 57 d0 3d 1d 22 7f bd 45 88 51 3d 2f 41 16 3e
       0.10172864 -0.062288392 0.051155347 0.14673303
000060 fe 9f 6d bd d8 9d fc bd 5a cc 76 3d 5e 8a 02 bc
       -0.05801391 -0.12334794 0.06025348 -0.00796756
000070 d3 bd 87 3e 84 ae 2c bc 4c ce 9f 3e 64 08 01 3c
       0.26512012 -0.010539655 0.3121208 0.007875536

weight f4 [7, 32]
000000 cd e1 17 3d ac 8e ca bd 11 51 19 3f 80 3a 64 3e
       0.037080575 -0.09890494 0.5988932 0.22287941
000010 69 ef 32 3e 66 0d 82 bf 90 ae 9d 3e 8a 9a 53 be
       0.1747414 -1.0160339 0.30797243 -0.2066442
000020 4e 4f db be c0 13 2b be f1 e5 4d 3e 9a f1 5d 3d
       -0.42833942 -0.16706753 0.20107247 0.054185487
000030 68 65 18 be 9a 36 88 3e 4a 8d e0 bd 79 c8 b7 3d
       -0.14882433 0.26604158 -0.10964449 0.08973784
000040 a8 de c5 be 0f 72 9c be 6d 59 e0 bd 14 20 b9 bd
       -0.38646436 -0.3055577 -0.109545566 -0.090393215
000050 ff fa 5e be cd 2f de bd 2a 1d bd 3e 6f f3 4f be
       -0.21775435 -0.10848961 0.36936313 -0.20307706
000060 1c 54 c8 bd ca 14 e5 bd 1f 63 4f bd 45 6f 84 3d
       -0.097816676 -0.11185606 -0.05063164 0.064665355
000070 3a 79 67 3f 26 f6 b2 be 03 bb 40 3e f1 b6 98 bd
       0.9041935 -0.3495342 0.1882134 -0.07456768
000080 fa e3 98 3c 96 3b 59 3d d7 60 00 bf 46 b8 17 3f
       0.018663395 0.05303534 -0.50147766 0.59265554
000090 28 9f d0 bd 0c 95 0a bc df d1 73 3f 10 b6 be be
       -0.10186607 -0.008458387 0.9524211 -0.37248278
0000a0 45 1c b2 be 63 d3 45 3e a6 21 64 3d 20 59 ca be
       -0.34787193 0.19318919 0.055696152 -0.39521122
0000b0 44 ba 76 3d ca e6 79 3d 99 f1 2a 3d 9e b0 85 3c
       0.06023623 0.061011113 0.04173431 0.01631957
0000c0 99 a4 1e be 50 03 c8 be 86 3c 03 be 7b 80 0e 3e
       -0.15492477 -0.39065027 -0.12816057 0.13916199
0000d0 02 87 e0 3e 57 5d cb be e9 dc e7 be 93 da 61 bd
       0.43853003 -0.3971965 -0.4528573 -0.05514009
0000e0 8f 4f 2f be e3 cf 31 3e 58 0f 91 3d f1 b0 24 3e
       -0.17120193 0.17364459 0.07083005 0.16083123
0000f0 b1 c9 18 bf 1b 0b 99 3e a6 d3 8a be 4a 27 df 3d
       -0.59682757 0.29891285 -0.271146 0.10896166
000100 fc 9a 5f bd 49 47 06 3e 86 9f a5 be 1b fe 3a 3f
       -0.054591164 0.1311313 -0.3234827 0.73043984
000110 ac c1 f5 bc 4a 58 12 3f e4 47 68 bf 9a 4a 17 bf
       -0.029999577 0.5716597 -0.90734696 -0.5909821
000120 a9 c0 4c be 7c 3d 0d 3d b2 67 09 be eb be f2 3e
       -0.19995369 0.034482464 -0.13418463 0.47411284
000130 24 fb 15 3f 8e 70 e1 be 61 2e 2c bf 05 e7 07 be
       0.58586335 -0.44031185 -0.6725827 -0.1327172
000140 d6 c5 1c bd 99 e7 c1 3e 3c eb 13 be 8b 70 a2 3d
       -0.03827461 0.37872007 -0.14445204 0.07931622
000150 5c 31 80 be ae a4 b5 bc 01 91 26 be 17 98 7c 3e
       -0.25037658 -0.022173252 -0.16266252 0.24667393
000160 8c 7b 5c bd 8f 98 6e 3d 4d 02 52 3e b3 89 ac 3d
       -0.05382876 0.05825096 0.2050869 0.084247015
000170 3a 29 ae 3e e4 3f be bd 3a c7 cc 3e 6a fb 50 3c
       0.34015828 -0.0928953 0.39995748 0.012755254
000180 60 6c 2f 3e 6e f3 bf 3c 0f 69 92 3c 8a ad 41 bf
       0.17131186 0.023431506 0.017872361 -0.75655425
000190 ae 09 68 3d 40 26 b0 3e 4b 94 94 3d e0 27 18 3f
       0.056649856 0.34404182 0.07254847 0.59435844
0001a0 85 cd 24 3f 0a 0c 07 3f fd 4e 9d be 6f 0a b6 be
       0.643761 0.52752745 -0.30724326 -0.35554835
0001b0 a6 2b 10 3e f6 e5 40 be fb 57 1b 3e 0a a8 0d be
       0.1407915 -0.18837723 0.1517028 -0.13833633
0001c0 33 57 46 3e ea 71 ef be 27 0d 17 be 1b b4 89 3d
       0.19369201 -0.46766597 -0.14751111 0.067238055
0001d0 f8 00 62 bf fa b6 92 be 2e 39 22 bf c8 ae 4d be
       -0.8828273 -0.28655225 -0.633685 -0.20086205
0001e0 b7 63 1b 3e ee 8f 14 be a1 06 ae bd b8 39 02 be
       0.15174757 -0.1450803 -0.08497358 -0.1271733
0001f0 cc 75 11 3f 4e 4f 89 3d 03 12 21 3e 42 97 cc 3d
       0.5682037 0.06704579 0.15729527 0.09989788
000200 23 d9 31 be 8b a8 84 3d 43 4e 17 be 71 87 54 bf
       -0.17367987 0.064774595 -0.14775948 -0.8301917
000210 00 1a 1f 3e 16 b6 8a bd 5c af f8 be 26 10 5a bc
       0.15537262 -0.067730114 -0.4857129 -0.013309514
000220 23 1b 0b 3c 3e ee 19 bf 44 6d c2 3d 20 30 7a 3e
       0.008490357 -0.60129154 0.09493497 0.2443242
000230 c0 3c 99 be 53 83 d7 3e 9e b6 29 3f ba 4a d2 3d
       -0.2992916 0.4209238 0.66294277 0.10268159
000240 b9 93 72 3d c0 57 31 3f 28 0f 71 3d 3c f8 f3 3d
       0.05922291 0.6927452 0.058852345 0.11912581
000250 17 8a fc 3e 50 dc f1 be a7 35 09 be ac ce b1 3e
       0.49324104 -0.47238398 -0.13399373 0.3472799
000260 ec 8d 0b be 17 96 6c bd a6 8b bf bd 12 01 05 3e
       -0.13628358 -0.057760324 -0.09352808 0.1298869
000270 89 68 de be c4 69 2c 3d 43 4c 14 3f 91 4a 1d be
       -0.4343913 0.042093053 0.57928866 -0.15360476
000280 df 9d 1f be 20 93 23 bd 64 73 d5 3d 59 5b eb be
       -0.15587567 -0.03993523 0.104224 -0.4596813
000290 47 ba be bc 79 8e 36 bd ce fb 64 3c b8 56 db 3e
       -0.023282183 -0.044569466 0.013976051 0.428396
0002a0 19 61 a1 be 37 d2 8c 3e 7f b4 93 3d 0f 6f 09 3d
       -0.31519392 0.2750413 0.07212161 0.03355318
0002b0 30 9b f0 bd f4 3b d5 bc 69 79 f3 be 1e 82 9b 3c
       -0.1174835 -0.026029564 -0.47553566 0.018982943
0002c0 20 ca 0a 3d 63 12 9d be 49 e4 46 3d 28 a7 2a be
       0.033884168 -0.3067809 0.048557553 -0.16665328
0002d0 12 ef e0 3e 57 e3 8a 3f 39 04 f6 3e 6d 38 02 3f
       0.43932396 1.0850629 0.48050097 0.5086735
0002e0 a1 44 1c 3e 51 57 19 be 17 4f 25 3e 90 7a a4 bc
       0.15260555 -0.14974715 0.16143452 -0.020077974
0002f0 2b fd 8a be bb 39 bc bd cd ab 5b be 6d 00 1b be
       -0.27146277 -0.09190699 -0.21452256 -0.15136881
000300 58 ca 8e 3b bc 93 f0 bd 26 a0 ad 3e ba c0 56 3e
       0.0043576173 -0.11746928 0.33911246 0.20971957
000310 0a 75 14 bd eb 26 7f 3d d8 71 3c be 06 2e e7 bc
       -0.03624443 0.062292974 -0.18402803 -0.028220188
000320 86 aa 94 3e 80 ed 1d bd 9f ba 02 3e cb c7 92 3e
       0.2903635 -0.038556576 0.12766503 0.28668055
000330 33 e1 07 3e fb f7 76 3e 33 da bd 3e 36 b5 43 be
       0.132695 0.24118035 0.37080535 -0.19112095
000340 91 4f 20 3e 86 5a 6c 3e ed 61 db 3d 7f 6e 9f 3d
       0.15655352 0.23081407 0.10712037 0.07784747
000350 28 ee 41 bd b4 18 0d 3f c5 39 fc 3e e2 b7 f6 be
       -0.047346264 0.5511582 0.49262825 -0.48187166
000360 91 29 2c 3c 40 72 f5 bd 69 6c ce bc 40 9d f4 bd
       0.010507957 -0.11984682 -0.025198178 -0.119440556
000370 26 b2 9f bd 6d 89 0d be 03 82 3b bf 35 10 8f 3d
       -0.07797651 -0.13821955 -0.7324526 0.06985513

bias f4 [7]
000000 ad fb 8c bd 0a 6c d0 3e ad a3 fc bd 46 0e cb 3e
       -0.06883941 0.40707427 -0.12335906 0.39659327
000010 14 4d 2b 3d 4a 4b c3 be d3 51 d6 be
       0.041821554 -0.38143378 -0.41859302

weight f4 [1, 32]
000000 67 54 1a 3e 84 6d 13 be 01 bd 85 3c a1 fa 8d 3e
       0.1507126 -0.14397246 0.016325476 0.27730277
000010 b5 4b 56 3e b8 76 52 3e 92 68 ff 3d 39 00 bb bb
       0.20927317 0.205531 0.12471117 -0.0057068137
000020 8d 38 88 3e 8e 5f 05 be fc 0c 80 3f da 03 c5 be
       0.26605645 -0.13024732 1.0003963 -0.384795
000030 8a 45 2c bf 4b 91 91 be e8 47 ca 3d 50 32 19 be
       -0.6729361 -0.28431162 0.09876996 -0.14960599
000040 a2 c7 0e bf ba 64 70 3d c1 7e e4 bd cc 4d 75 3e
       -0.55773365 0.05868981 -0.11156989 0.23955458
000050 04 24 b7 be 28 84 a2 bc 7b 10 b0 3e 3f ef 1f 3e
       -0.35769665 -0.019838408 0.34387574 0.15618609
000060 36 31 e9 3d 39 88 3e 3d 74 39 15 bf d9 55 0b be
       0.11386339 0.04651663 -0.5829079 -0.13606967
000070 47 06 3f be 83 a3 69 bf cf 11 e6 3e ab 89 41 bf
       -0.18654738 -0.91265124 0.44935462 -0.7560069
